misc/model.tflite (tflite, 685968 bytes, 416 tensors)

add_327/ReadVariableOp/resource f4 [10]
00000000: 5aed 07be dea2 c93e 9ec5 803e bd8b 60be
00000010: 2448 993e e134 a6be 9551 35bf 5e38 ec3d
00000020: b12f 0c3e bb7b 20bf
-0.13274136 0.3938207 0.2515077 -0.21928306 0.2993785 -0.32462218 -0.7082761 0.11534189
0.13690068 -0.626888

MatMul i1 [10, 3136] scale=0.0014799798 zero_point=0
00000000: 1cc4 fdd2 13f5 ec1d f106 02e4 2e1c 072e
00000010: 0545 e032 f408 1a11 d109 e30d d213 f0f2
00000020: 02dd f2f1 afed 35da 120a 1506 23ed c50a
00000030: 0603 e51b fece 07f7 f007 1b28 08e4 f1ef
00000040: 3ffc c9ec 281f 2b01 fa17 03d9 2509 0508
00000050: effa 27cc f4fa 1df8 242e defe e20c fdf8
00000060: 0cf6 d51f bff9 fd1c db04 d51a ee1b e714
00000070: 250a ea17 210b 0e13 1a1a 1c13 21d6 201a
00000080: f757 f6e8 2525 04f1 f2fa fb08 0d0d 0d28
00000090: 0935 ef00 dcf5 fbf9 11fb d117 fce7 ee0b
000000a0: f9d9 f91d 0922 051f ff03 04ed 0e01 2e05
000000b0: cdd7 12ed 31f9 1935 edf9 1017 e503 fa00
000000c0: de05 d523 effe f31c 0908 000b ed01 e8f9
000000d0: dbe8 ffdc fdf4 13fe f5ff 100c 2dff 301c
000000e0: f2f9 e305 e419 f120 06f8 08f6 e1e9 0afa
000000f0: ec03 ee1e fdbf 0e0e 0a2b f9f4 a12c e515
0.041439436 -0.08879879 -0.0044399397 -0.06807907 0.028119616 -0.016279778 -0.029599596 0.042919416
-0.022199698 0.0088798795 0.0029599597 -0.041439436 0.06807907 0.041439436 0.010359859 0.06807907
0.007399899 0.10211861 -0.047359355 0.073998995 -0.017759759 0.011839839 0.038479477 0.025159657
-0.06955905 0.013319818 -0.042919416 0.019239739 -0.06807907 0.028119616 -0.023679677 -0.020719718
0.0029599597 -0.051799294 -0.020719718 -0.022199698 -0.11987837 -0.028119616 0.07843893 -0.056239232
0.026639637 0.014799798 0.031079577 0.0088798795 0.051799294 -0.028119616 -0.08731881 0.014799798
0.0088798795 0.0044399397 -0.039959457 0.039959457 -0.0029599597 -0.073998995 0.010359859 -0.013319818
-0.023679677 0.010359859 0.039959457 0.05919919 0.011839839 -0.041439436 -0.022199698 -0.025159657
0.093238726 -0.0059199193 -0.08139889 -0.029599596 0.05919919 0.045879375 0.063639134 0.0014799798
-0.0088798795 0.034039535 0.0044399397 -0.057719212 0.054759253 0.013319818 0.007399899 0.011839839
-0.025159657 -0.0088798795 0.057719212 -0.076958954 -0.017759759 -0.0088798795 0.042919416 -0.011839839
0.053279273 0.06807907 -0.050319314 -0.0029599597 -0.044399396 0.017759759 -0.0044399397 -0.011839839
0.017759759 -0.014799798 -0.063639134 0.045879375 -0.09619869 -0.010359859 -0.0044399397 0.041439436
-0.054759253 0.0059199193 -0.063639134 0.038479477 -0.026639637 0.039959457 -0.036999498 0.029599596
0.054759253 0.014799798 -0.032559555 0.034039535 0.048839334 0.016279778 0.020719718 0.028119616
0.038479477 0.038479477 0.041439436 0.028119616 0.048839334 -0.062159155 0.047359355 0.038479477
-0.013319818 0.12875825 -0.014799798 -0.035519518 0.054759253 0.054759253 0.0059199193 -0.022199698
-0.020719718 -0.0088798795 -0.007399899 0.011839839 0.019239739 0.019239739 0.019239739 0.05919919
0.013319818 0.07843893 -0.025159657 0.0 -0.053279273 -0.016279778 -0.007399899 -0.010359859
0.025159657 -0.007399899 -0.06955905 0.034039535 -0.0059199193 -0.036999498 -0.026639637 0.016279778
-0.010359859 -0.057719212 -0.010359859 0.042919416 0.013319818 0.050319314 0.007399899 0.045879375
-0.0014799798 0.0044399397 0.0059199193 -0.028119616 0.020719718 0.0014799798 0.06807907 0.007399899
-0.07547897 -0.060679175 0.026639637 -0.028119616 0.07251901 -0.010359859 0.036999498 0.07843893
-0.028119616 -0.010359859 0.023679677 0.034039535 -0.039959457 0.0044399397 -0.0088798795 0.0
-0.050319314 0.007399899 -0.063639134 0.051799294 -0.025159657 -0.0029599597 -0.019239739 0.041439436
0.013319818 0.011839839 0.0 0.016279778 -0.028119616 0.0014799798 -0.035519518 -0.010359859
-0.054759253 -0.035519518 -0.0014799798 -0.053279273 -0.0044399397 -0.017759759 0.028119616 -0.0029599597
-0.016279778 -0.0014799798 0.023679677 0.017759759 0.06659909 -0.0014799798 0.071039036 0.041439436
-0.020719718 -0.010359859 -0.042919416 0.007399899 -0.041439436 0.036999498 -0.022199698 0.047359355
0.0088798795 -0.011839839 0.011839839 -0.014799798 -0.045879375 -0.034039535 0.014799798 -0.0088798795
-0.029599596 0.0044399397 -0.026639637 0.044399396 -0.0044399397 -0.09619869 0.020719718 0.020719718
0.014799798 0.063639134 -0.010359859 -0.017759759 -0.14059809 0.06511911 -0.039959457 0.031079577

Conv2D f4 [16, 3, 3, 1]
00000000: b5cd 27be 2755 a7bd 349c c0bd 977c fc3d
00000010: 96ca 2fbc 949c 3cbe 7924 1a3e af09 973e
00000020: 0356 4a3c 8607 3fbb 6817 3a3e 7672 68be
00000030: e913 3b3e 703c 4e3e 2e5e 053e d27f e23b
00000040: 4efa e03c 422d 293e 5e21 b1bd e12a 8ebd
00000050: 5bb9 d7ba d842 05bc abd9 e4bd d253 75be
00000060: c526 513e 4847 57bd d29c f93d 8b1e 5e3e
00000070: df3c d13d 89b5 223e 54e6 85bd d120 cdbc
00000080: 6e93 9c3e 143a efbd a20e 72be 8e95 15be
00000090: 413a 71bc 6aab 08be 5c8f 433e 0dd4 a7bd
000000a0: f7bc a3bd a0f8 013e 16f1 b33c 3733 3c3e
000000b0: 10f6 f0bd 8451 9dbd bc84 0cbe 0ec6 11bd
000000c0: 30df c73c b93e a33d fe0e 4f3e be59 fe3d
000000d0: 8674 15be aa91 ebbd df1c 8cbe f527 54bd
000000e0: 07d1 a2bd fe3c 213d 8258 8abe 11bc 05be
000000f0: 93f9 1c3e 517e 5ebd fe24 1bbe 3627 da3d
00000100: c76f fd3d 573e 7cbe 3c69 023e 744a 3cbe
00000110: 48d8 313b bc81 623e dbe0 753c c2a8 80be
00000120: 13d7 9bbd 4997 ac3d 427e c23a d371 873d
00000130: 5533 b5bd 2092 d4bb 7c6f 37bd 90d2 413e
00000140: 95e5 793c bf13 3abe 7691 24bd 7228 443d
00000150: 60de adbd b0ae 163c 33df 193e 9dcd f03a
00000160: dcc6 38be 333c cb3d 12db aabd 3c37 afbd
00000170: 6ed2 303e 2742 fcbd 7300 9d3e 1abb aabd
00000180: 1c96 293e 9b2b 78bc 6b30 b9bd e926 aabd
00000190: 407b ad3c cafd 8b3d 9bc4 453e 8162 42bd
000001a0: 83a0 2c3e 3ec9 1fbe 365b 513c ac62 11be
000001b0: bac3 003e e89b 08be 78a4 d7bd b69d 013e
000001c0: 77b0 99be e72e 8c3d b593 463e 89d2 9abd
000001d0: b18e 353d 58a2 e13d 11b8 333e a9ed 3c3d
000001e0: 3d44 d5bd 3523 42be f863 52be 98cf 14be
000001f0: 9559 6d3d 0ef7 b2bd ae39 8bbe b4cd 60bd
00000200: 8dfc 733e 13f3 7dbd 9df6 4e3d da55 be3d
00000210: 232c 803d 1192 033d 9c18 d3bd 3a66 6abe
00000220: a4f5 4b3e aa1f 1c3e 0dc2 8e3c a2ea 763c
00000230: 5274 073e 4e34 c03c 4ba6 ee3d 5601 5e3e
-0.16387065 -0.081705384 -0.094047934 0.12328451 -0.010729453 -0.18419105 0.15052976 0.29499575
0.012349608 -0.0029148771 0.18172991 -0.22699913 0.18269314 0.20140243 0.13024208 0.00691221
0.027463105 0.1652117 -0.086489424 -0.06941772 -0.0016458438 -0.008133613 -0.11174329 -0.23957756
0.20424946 -0.052558213 0.12188114 0.21691339 0.10216688 0.15889563 -0.06538072 -0.025040062
0.3058123 -0.116809994 -0.23638394 -0.14607832 -0.0147233615 -0.1334664 0.19097656 -0.08194742
-0.079950266 0.12692499 0.021965545 0.18378912 -0.11765683 -0.076815635 -0.13722509 -0.03558927
0.024398416 0.07970948 0.20220563 0.12419461 -0.14595231 -0.115023926 -0.27365777 -0.05179592
-0.07950025 0.039364807 -0.2702065 -0.13060023 0.1532958 -0.054319683 -0.1515083 0.1065201
0.123748355 -0.24633156 0.12735456 -0.18387777 0.002713697 0.22119802 0.015007223 -0.25128752
-0.076093815 0.08427293 0.0014838653 0.06613507 -0.088476814 -0.006487146 -0.044784054 0.1892798
0.0152524905 -0.18171595 -0.040177785 0.047890134 -0.0848968 0.009196922 0.1502655 0.0018371824
-0.18044609 0.099235915 -0.083425656 -0.08555457 0.17267773 -0.12317305 0.30664405 -0.08336468
0.16561168 -0.015147115 -0.09042438 -0.08308203 0.021176934 0.06835516 0.1931328 -0.047457222
0.16858105 -0.15604112 0.012778094 -0.14197797 0.12574664 -0.13340724 -0.10529417 0.12657818
-0.30017444 0.068448834 0.19392283 -0.07559688 0.044325534 0.11017293 0.17550685 0.046125088
-0.10413406 -0.18958743 -0.20545948 -0.14532316 0.05794676 -0.08738528 -0.27192444 -0.054883674
0.23826809 -0.06199939 0.050528158 0.09293719 0.062584184 0.03212172 -0.10307428 -0.22890559
0.19917923 0.15246454 0.017426515 0.015070589 0.13227966 0.02346244 0.116528116 0.21680197

Conv2D_1 i1 [32, 3, 3, 16] scale=0.0020121096 zero_point=0
00000000: 19fd cbf8 129f e0d2 fcd7 f0ec 03d6 a8e1
00000010: d339 fdf9 ddf4 36ed da2b 1a40 190b 19f8
00000020: b5f4 e7c7 29dc dfe7 31fa 0a22 a5dd fb37
00000030: 33cb e616 4dcd 1120 fce5 c0dc 05f3 f812
00000040: 26ea c7ee f227 1b07 37e3 d435 db12 18f8
00000050: f9c7 0d1d 050f 191f 16d5 0b27 300b f8ff
00000060: 3322 eeb8 e1ca 414a 1fd7 3cd3 500b 3d24
00000070: d913 c2d8 0def d4fa 0b1e fff7 d610 22fa
00000080: e1ba 0ea6 1f10 c42f f32e 1abd 1d1c 291c
00000090: 4755 04de 0ffa fa0c 01d4 d700 ecae 2bae
000000a0: 17c3 20fe d524 1f21 b41d d8f5 cd1f c0c4
000000b0: 3eec d104 5e13 aefd 331e e617 fd37 f5f1
000000c0: 0310 1ef5 fee7 e707 0010 3a17 0512 2d12
000000d0: 0acd f8e8 1f26 e0e7 f7d5 1304 1417 e83e
000000e0: bdfd 0b20 03fe dc00 04ef 5330 3bf7 34dc
000000f0: 411a e510 e1c5 02f1 490a 3b0f 382c 03e2
0.05030274 -0.006036329 -0.10664181 -0.016096877 0.036217973 -0.19517463 -0.06438751 -0.09255704
-0.0080484385 -0.082496494 -0.032193754 -0.04024219 0.006036329 -0.084508605 -0.17706564 -0.062375396
-0.09054493 0.11469025 -0.006036329 -0.014084768 -0.070423834 -0.024145316 0.10865392 -0.038230084
-0.07646017 0.08652072 0.05231485 0.12877502 0.05030274 0.022133205 0.05030274 -0.016096877
-0.15090822 -0.024145316 -0.05030274 -0.11469025 0.082496494 -0.072435945 -0.06639962 -0.05030274
0.09859337 -0.012072658 0.020121096 0.06841173 -0.18310198 -0.070423834 -0.010060548 0.11066603
0.10261759 -0.10664181 -0.05231485 0.04426641 0.15493244 -0.10261759 0.034205865 0.06438751
-0.0080484385 -0.05432696 -0.12877502 -0.072435945 0.010060548 -0.026157426 -0.016096877 0.036217973
0.07646017 -0.04426641 -0.11469025 -0.036217973 -0.028169535 0.07847227 0.05432696 0.014084768
0.11066603 -0.058351178 -0.08853282 0.10664181 -0.07444806 0.036217973 0.048290633 -0.016096877
-0.014084768 -0.11469025 0.026157426 0.058351178 0.010060548 0.030181644 0.05030274 0.062375396
0.04426641 -0.08652072 0.022133205 0.07847227 0.096581265 0.022133205 -0.016096877 -0.0020121096
0.10261759 0.06841173 -0.036217973 -0.14487189 -0.062375396 -0.10865392 0.13078712 0.14889611
0.062375396 -0.082496494 0.12072658 -0.09054493 0.16096877 0.022133205 0.12273869 0.072435945
-0.07847227 0.038230084 -0.12475079 -0.08048438 0.026157426 -0.034205865 -0.08853282 -0.012072658
0.022133205 0.06036329 -0.0020121096 -0.018108986 -0.084508605 0.032193754 0.06841173 -0.012072658
-0.062375396 -0.14084767 0.028169535 -0.18108986 0.062375396 0.032193754 -0.12072658 0.094569154
-0.026157426 0.09255704 0.05231485 -0.13481134 0.058351178 0.05633907 0.082496494 0.05633907
0.14285979 0.17102931 0.0080484385 -0.06841173 0.030181644 -0.012072658 -0.012072658 0.024145316
0.0020121096 -0.08853282 -0.082496494 0.0 -0.04024219 -0.16499299 0.08652072 -0.16499299
0.04627852 -0.12273869 0.06438751 -0.0040242192 -0.08652072 0.072435945 0.062375396 0.06639962
-0.15292034 0.058351178 -0.08048438 -0.022133205 -0.10261759 0.062375396 -0.12877502 -0.12072658
0.12475079 -0.04024219 -0.094569154 0.0080484385 0.18913831 0.038230084 -0.16499299 -0.006036329
0.10261759 0.06036329 -0.05231485 0.04627852 -0.006036329 0.11066603 -0.022133205 -0.030181644
0.006036329 0.032193754 0.06036329 -0.022133205 -0.0040242192 -0.05030274 -0.05030274 0.014084768
0.0 0.032193754 0.116702355 0.04627852 0.010060548 0.036217973 0.09054493 0.036217973
0.020121096 -0.10261759 -0.016096877 -0.048290633 0.062375396 0.07646017 -0.06438751 -0.05030274
-0.018108986 -0.08652072 0.038230084 0.0080484385 0.04024219 0.04627852 -0.048290633 0.12475079
-0.13481134 -0.006036329 0.022133205 0.06438751 0.006036329 -0.0040242192 -0.072435945 0.0
0.0080484385 -0.034205865 0.16700509 0.096581265 0.11871447 -0.018108986 0.1046297 -0.072435945
0.13078712 0.05231485 -0.05432696 0.032193754 -0.062375396 -0.11871447 0.0040242192 -0.030181644
0.14688401 0.020121096 0.11871447 0.030181644 0.11267814 0.08853282 0.006036329 -0.06036329

Conv2D_2 i1 [32, 3, 3, 32] scale=0.0019242101 zero_point=0
00000000: 1335 ee07 330d f216 2d0c 0709 bb47 cb09
00000010: 0002 48eb 0e34 d801 fcd7 bb2c 1e24 eed9
00000020: 05de 2ec5 3803 c2c8 0c06 e0f2 1ae4 be23
00000030: 1f05 f610 cbc5 1ff8 250e 1236 21df 2b09
00000040: d815 eaee d228 dbd0 f313 1d33 0611 2d23
00000050: 43ea b2ee 1cd1 fea0 20ce 0df1 1cd7 c3f6
00000060: fedd 092b 4dc8 d91c 0351 e4ec 091e fd08
00000070: 1923 21ec 00cd dbf5 e820 d60f 2516 e11a
00000080: 3215 a5b7 1300 0ada f845 f0e7 30f2 1bd5
00000090: 02f9 f824 1727 caee 032b fadb 44f2 021b
000000a0: 1cc0 05ef ba00 dfbb d9cd ba05 0af0 f0f2
000000b0: d5e2 e902 2af9 e7fe cad2 19d9 07ed 3ce6
000000c0: f5dc 1952 f5e4 1821 2824 e650 f029 f81c
000000d0: bee6 e521 cdcd 3226 3004 e116 e6ee 0ffb
000000e0: 062d 49e2 f410 df2d fffb 1c34 0407 eb29
000000f0: 0e48 e4f7 360e 3517 d708 1b05 f7e4 b4f2
0.03655999 0.10198314 -0.034635782 0.013469471 0.09813472 0.025014732 -0.026938941 0.042332623
0.086589456 0.02309052 0.013469471 0.017317891 -0.1327705 0.13661891 -0.10198314 0.017317891
0.0 0.0038484202 0.13854313 -0.040408414 0.026938941 0.10005893 -0.0769684 0.0019242101
-0.0076968404 -0.07889261 -0.1327705 0.08466525 0.057726305 0.069271564 -0.034635782 -0.07504419
0.00962105 -0.065423146 0.088513665 -0.11352839 0.107755765 0.00577263 -0.11930103 -0.107755765
0.02309052 0.01154526 -0.061574724 -0.026938941 0.050029464 -0.053877883 -0.12699787 0.067347355
0.059650514 0.00962105 -0.0192421 0.030787362 -0.10198314 -0.11352839 0.059650514 -0.015393681
0.071195774 0.026938941 0.034635782 0.10390735 0.06349894 -0.06349894 0.08274104 0.017317891
-0.0769684 0.040408414 -0.042332623 -0.034635782 -0.088513665 0.0769684 -0.071195774 -0.09236208
-0.025014732 0.03655999 0.055802092 0.09813472 0.01154526 0.032711573 0.086589456 0.067347355
0.12892208 -0.042332623 -0.15008838 -0.034635782 0.053877883 -0.090437874 -0.0038484202 -0.18472417
0.061574724 -0.0962105 0.025014732 -0.028863152 0.053877883 -0.07889261 -0.11737682 -0.0192421
-0.0038484202 -0.067347355 0.017317891 0.08274104 0.14816418 -0.107755765 -0.07504419 0.053877883
0.00577263 0.15586102 -0.053877883 -0.0384842 0.017317891 0.057726305 -0.00577263 0.015393681
0.04810525 0.067347355 0.06349894 -0.0384842 0.0 -0.09813472 -0.071195774 -0.021166312
-0.04618104 0.061574724 -0.08081683 0.028863152 0.071195774 0.042332623 -0.059650514 0.050029464
0.0962105 0.040408414 -0.17510311 -0.14046733 0.03655999 0.0 0.0192421 -0.07311998
-0.015393681 0.1327705 -0.030787362 -0.04810525 0.09236208 -0.026938941 0.051953673 -0.08274104
0.0038484202 -0.013469471 -0.015393681 0.069271564 0.044256832 0.07504419 -0.10390735 -0.034635782
0.00577263 0.08274104 -0.01154526 -0.071195774 0.13084629 -0.026938941 0.0038484202 0.051953673
0.053877883 -0.12314945 0.00962105 -0.032711573 -0.13469471 0.0 -0.06349894 -0.1327705
-0.07504419 -0.09813472 -0.13469471 0.00962105 0.0192421 -0.030787362 -0.030787362 -0.026938941
-0.08274104 -0.057726305 -0.044256832 0.0038484202 0.08081683 -0.013469471 -0.04810525 -0.0038484202
-0.10390735 -0.088513665 0.04810525 -0.07504419 0.013469471 -0.03655999 0.11545261 -0.050029464
-0.021166312 -0.069271564 0.04810525 0.15778522 -0.021166312 -0.053877883 0.04618104 0.06349894
0.0769684 0.069271564 -0.050029464 0.1539368 -0.030787362 0.07889261 -0.015393681 0.053877883
-0.12699787 -0.050029464 -0.051953673 0.06349894 -0.09813472 -0.09813472 0.0962105 0.07311998
0.09236208 0.0076968404 -0.059650514 0.042332623 -0.050029464 -0.034635782 0.028863152 -0.00962105
0.01154526 0.086589456 0.14046733 -0.057726305 -0.02309052 0.030787362 -0.06349894 0.086589456
-0.0019242101 -0.00962105 0.053877883 0.10005893 0.0076968404 0.013469471 -0.040408414 0.07889261
0.026938941 0.13854313 -0.053877883 -0.017317891 0.10390735 0.026938941 0.10198314 0.044256832
-0.07889261 0.015393681 0.051953673 0.00962105 -0.017317891 -0.053877883 -0.14623997 -0.026938941

Conv2D_16 f4 [1, 1, 1, 32]
00000000: 9c77 903e 8c6b 063d 2f20 2e3d 9c13 4bbe
00000010: 3dd8 5cbe b9c4 21bc 42b7 92be 0311 babc
00000020: c5b6 39be 605b d93e a636 49bd 9a4c 55be
00000030: 079d ab3e d878 073f e8c0 7fbe b702 79bd
00000040: f8d3 79bd 0032 0a3e 6a68 98bd 12c5 cabe
00000050: c134 8a3d 56ad 1dbe f682 fdbd bf49 61bd
00000060: a4f2 d6bd 590c 063b 2ccf 933c 86ad 96be
00000070: e331 803d 1083 6c3e 305e d2bd 5306 3b3e
0.28216255 0.03281741 0.04251116 -0.19831699 -0.21566863 -0.0098735625 -0.2865544 -0.02271319
-0.18136127 0.42452526 -0.049124382 -0.20830002 0.3351824 0.5291877 -0.24975932 -0.060793605
-0.060993165 0.13495636 -0.074417904 -0.39603478 0.06748343 -0.15398154 -0.123784944 -0.05500197
-0.10495499 0.0020454137 0.018043123 -0.29429263 0.06259515 0.23096871 -0.10271871 0.18264131

Conv2D_17 f4 [4, 3, 3, 1]
00000000: 4263 f63c 96e9 8dbe a0e0 e9bd 4e1e d5be
00000010: afe1 7b3e 7b4a 1e3e 494b e9be 1018 1dbd
00000020: dc83 3f3e 2953 63bd c35b 5abe f45e e8bc
00000030: 3a02 f93e 3784 d33d cc67 3abe 0573 3abe
00000040: 94df d23e da4c a93d ffc4 153e 626c 06be
00000050: 9168 c0be acc5 51be 9a03 523e 6534 a23e
00000060: 344d 85bd cffc b5bd df7e 17be ee35 90bd
00000070: 82e5 44be e615 403e 6c63 063e 8de3 5b3d
00000080: c07a a83e 9f05 5c3e e099 65be 3cd1 06bd
0.030076627 -0.27717274 -0.11419797 -0.41624683 0.2459781 0.154581 -0.4556525 -0.038353026
0.18702644 -0.05549923 -0.21324067 -0.02836559 0.4863451 0.10327952 -0.18203658 -0.18207939
0.41186202 0.082666114 0.1462593 -0.13127282 -0.37579778 -0.20485562 0.20509186 0.316806
-0.06508866 -0.0888611 -0.14794491 -0.07041536 -0.19228175 0.18758354 0.13123864 0.053683806
0.3290615 0.2148652 -0.2242198 -0.032914385

Conv2D_18 f4 [1, 1, 1, 32]
00000000: ec00 443d 0950 b8be 7ff1 05bf 4149 133e
00000010: 044c 123e 8076 1a3d 3dc9 fdbd ffb5 77be
00000020: 9154 d83d fa1b f1be cb14 b0be 3948 123e
00000030: 4944 f33d a5da 853d 2fe1 c43d 1f29 b53e
00000040: 12b8 e3bc 5f0b 11bf a293 48be ddd3 093e
00000050: 7013 f9bc 3944 543e a15c adbd 8b26 dfbd
00000060: feb6 6b3e 071f a93d dc54 783d 14bb e53e
00000070: ad09 e9be 15ab b6bd d6ca e1bd 6a46 22be
0.04785244 -0.35998562 -0.5232162 0.14383413 0.1428681 0.037710667 -0.12391899 -0.2419052
0.10563005 -0.47091657 -0.34390864 0.14285363 0.11878259 0.06535844 0.09613263 0.35382935
-0.027797733 -0.56657976 -0.19587567 0.13459726 -0.030404776 0.2072915 -0.08464933 -0.10896023
0.23019025 0.08257871 0.060627803 0.44869292 -0.45515195 -0.0891935 -0.11025016 -0.15847173

Conv2D_19 f4 [4, 3, 3, 1]
00000000: dc4b eebd 1bae 113e db75 5b3d 5708 833e
00000010: f569 033e aa16 a7be 2f28 8e3e d99b 0bbe
00000020: b98f 66be 64bb 64be 6d61 243e 3799 c13d
00000030: e4b2 1ebe 0020 243e bf89 983c d4e1 ffbd
00000040: e0c6 e9bd f5af 49be c30e fcbd e983 a53e
00000050: 797e 2abd 39f1 58bc d0e4 2ebe 1017 353e
00000060: 0b01 60be 290e 933c 4720 b9be b43a bfbc
00000070: e8b6 e23d 293e a33e d313 a0bd cc0b 06be
00000080: f2fe c53c 5b92 593e fbd9 523d 9230 b43a
-0.11635563 0.14226572 0.053579193 0.255923 0.12833388 -0.3263448 0.27765033 -0.1363367
-0.22515763 -0.22337109 0.1605279 0.094530515 -0.15497929 0.16027832 0.01862037 -0.12494245
-0.114148855 -0.19696029 -0.12307503 0.32327202 -0.04162452 -0.013241106 -0.17079473 0.17684579
-0.21875398 0.017951088 -0.36157438 -0.023343422 0.11070043 0.31883362 -0.07816281 -0.13090438
0.024169419 0.21247236 0.051477414 0.0013747385

Conv2D_20 f4 [1, 1, 1, 32]
00000000: 5a2c 173e 186e 163e 55e0 833e 1bc5 0cbf
00000010: 8b1c 4ebe db45 18bd 8a51 e8be 891c 27be
00000020: cf25 c13c 6a6b 9ebd b17e a1be 73c1 b3be
00000030: ac01 edbc a027 7bbe db43 443e e671 cebe
00000040: 55b8 77be 88c3 153d d202 86be 0dc4 1e3e
00000050: 5ab6 0c3e cd6c 7fbe ca4e f4bd b7f7 813b
00000060: 2fb5 323d 996b e53e 016c 033f 5b52 dabe
00000070: bed8 9f3e 0d37 803b 57d8 11bc 61ec 653e
0.14763013 0.14690435 0.2575709 -0.5498826 -0.20128076 -0.037175994 -0.4537471 -0.16319479
0.023577599 -0.07735331 -0.3154197 -0.35108528 -0.028931461 -0.24526834 0.1916651 -0.40321273
-0.24191411 0.036563426 -0.26174027 0.15504475 0.13741437 -0.24943848 -0.1192909 0.0039662975
0.04362982 0.44808653 0.51336676 -0.42640957 0.3122005 0.0039128126 -0.008901677 0.22453453

Conv2D_21 f4 [4, 3, 3, 1]
00000000: e4ba 8dbe 8132 64be eb69 b63d 448f 09bd
00000010: 8776 7ebd d181 e73e 9e5e 8dbe edcc 20be
00000020: 1ee8 72be 5b80 87bd a77d 4d3e 842a 9a3d
00000030: 35d1 60be 15a7 80be 0640 b4be 24d4 e83c
00000040: 8f79 c63e f9b2 623e a7b1 2a3d 31d1 a03d
00000050: 6e1c f03e 893b 2abe fd53 fcbc 4bac 15be
00000060: cbdb 503e 77cc 213e c7e4 923e 2d45 61be
00000070: 54bd d73d 9985 e8be 5a22 9abd ba2e d43e
00000080: 12c4 9ebe 16da 073e ad53 abbd fe19 bfbe
-0.2768165 -0.2228489 0.08906921 -0.033583894 -0.062124755 0.4521623 -0.2761125 -0.15703173
-0.23721358 -0.06616279 0.20067464 0.075276405 -0.21954806 -0.25127473 -0.35205096 0.028421469
0.38764617 0.22138585 0.04167333 0.078524 0.4689669 -0.16624273 -0.030801767 -0.14616506
0.20396344 0.15800653 0.28690168 -0.21999045 0.10534158 -0.45414427 -0.07526083 0.414419
-0.31008965 0.13266787 -0.08365569 -0.37324518

Conv2D_22 f4 [1, 1, 1, 32]
00000000: a3c6 bbbe 8553 49bc 08f4 1f3e 1db3 91bd
00000010: 1069 aa3d f757 b3bd 344d 5a3d f78b 00be
00000020: 903e 823e 734d c4be bce9 373e 6bd4 34be
00000030: 2969 4e3d d0d0 afbd 48cd 793e c79b f3ba
00000040: b2e2 f33e fcba b33c f82f 8b3e 6aad fc3d
00000050: 8f1a 3cbd 0579 a9be f99d 53be 73fe 233e
00000060: 45dc 4abd a524 b7be c4c8 41be 55db debe
00000070: 4ae3 8dbe c771 043f 9a3c fdbd b11d a4be
-0.36674985 -0.012287979 0.15620434 -0.07114241 0.0832082 -0.08757012 0.053296283 -0.12553392
0.25438356 -0.3834034 0.17960256 -0.17659156 0.050393257 -0.0858475 0.24394715 -0.0018585854
0.47633892 0.021939747 0.27185035 0.123377636 -0.045923766 -0.33100143 -0.2066573 0.16015033
-0.04952647 -0.35770145 -0.18924242 -0.43526712 -0.2771247 0.5173611 -0.123650745 -0.32053903

Conv2D_23 f4 [4, 3, 3, 1]
00000000: e157 953e c5f4 cfbe 1a09 d9bd b603 683c
00000010: d5c2 c1be c34c 953e 1bc7 f9bb f205 bebc
00000020: 3a7e 273d e803 c8be 3724 853e 6304 01be
00000030: 5467 c5be c0f4 66be 3289 cbbd 63d3 9e3e
00000040: 4271 4e3e be38 923e b2fb a6be 2cb4 cc3d
00000050: df89 8abe 2b40 fa3c b94c ad3e 2be6 223e
00000060: fba0 c5be 12dd e7bd 30be 62bd 2036 463e
00000070: 1ede febd ab47 aa3e 12fe 9d3d 7d80 8abd
00000080: 892f d0be e5eb 793d abc7 2c3e 1300 b23e
0.2916861 -0.40616432 -0.10597439 0.014161041 -0.37843958 0.29160127 -0.007622612 -0.023196194
0.040891863 -0.3906548 0.26004192 -0.1259933 -0.38555396 -0.22554302 -0.09938277 0.3102065
0.20160392 0.28558916 -0.32613903 0.099953026 -0.27058312 0.030548176 0.33847597 0.15908115
-0.3859938 -0.11321463 -0.05535716 0.19356585 -0.12444709 0.33257803 0.07714476 -0.067627884
-0.40661266 0.061015982 0.16873042 0.34765682

Conv2D_24 f4 [2, 1, 1, 4]
00000000: ec72 963f 5190 50bf fb4e 853f c4ef 9c3e
00000010: 017c e4be 711e 14bf 6ed4 27be 2624 6d3f
1.1753821 -0.8147021 1.0414728 0.30651677 -0.44625857 -0.5785895 -0.16389629 0.92633283

Conv2D_25 f4 [4, 1, 1, 2]
00000000: 19ab 923e 4621 c03c aeca aabe 7161 4e3f
00000010: ce73 16bd 091d 953d dcde 4cbf 71a1 343e
0.28646162 0.023453366 -0.33357757 0.80617434 -0.036731534 0.07280929 -0.80027556 0.1763971

Conv2D_26 f4 [4, 1, 1, 2]
00000000: 7296 d83d d540 95bd 7f96 8c3f c17f c7be
00000010: 830f fb3e e179 58bd 5985 013f e948 863f
0.1057557 -0.07287756 1.0983428 -0.38964656 0.49035272 -0.052850608 0.505941 1.0491

Conv2D_27 f4 [4, 1, 1, 2]
00000000: 3e1d d83e 0901 123d d1ce 9f3f 4c5a 41bf
00000010: 404b 023f d2f8 28bf cde5 15bf 6d16 033f
0.4220981 0.03564552 1.248499 -0.7552841 0.5089607 -0.6600467 -0.58553773 0.51206094

Conv2D_28 f4 [4, 1, 1, 2]
00000000: 71d5 233f 54bb cdbe 2ba2 aebe 1d81 0fbf
00000010: 0537 b23e 6f67 403e 32f0 26bf 9617 73be
0.6399756 -0.40181983 -0.341081 -0.56056386 0.34807602 0.18789457 -0.6521026 -0.23739466

Conv2D_29 f4 [1, 1, 1, 32]
00000000: aadb 963e 24be b63e 19fa 82be cc78 db3e
00000010: 5d2d 273e 2b2c 103f b8f1 193e a68a a8bd
00000020: 797c 763d 20b9 b13d f3f5 6e3d 6d96 cabd
00000030: 5ee3 92bc 800b 8e3e a772 b0be 330c f8bd
00000040: 6854 0e3e 6de2 c83e 79da 993e 9e34 6abd
00000050: d9c9 86bb 07da a73e 41aa 15bd 2ff4 073d
00000060: 55a0 2ebe 6ccb 733e 827f 433e 567e b63d
00000070: d184 9f3e 4439 9ebe b691 9dbe 52b9 7d3e
0.29464465 0.3569194 -0.25581434 0.42865598 0.16325898 0.56317395 0.15033615 -0.0822957
0.0601773 0.08677888 0.058340024 -0.09891973 -0.017930683 0.2774315 -0.34462473 -0.12111702
0.13899386 0.3923525 0.30049494 -0.057179086 -0.0041134176 0.3278353 -0.03653932 0.033191856
-0.1705335 0.23808068 0.19091609 0.089108154 0.31156018 -0.30903065 -0.3077523 0.24777725

Conv2D_30 f4 [4, 3, 3, 1]
00000000: 4049 a9be b2d1 c83e c451 04bd b03b 0bbe
00000010: 5cb4 adbc d515 903c 4fe0 0dbe 7966 29bb
00000020: 7f97 033e 8f9e 2e3e ba87 a03d a564 5bbe
00000030: ab52 a7be 4d4f ecbe 2d9e e23e 9595 b13d
00000040: def5 593e bff0 a83e 8a8d b2be 8bd6 6fbe
00000050: 30a5 4a3d fea3 633e f3e2 9b3e 9878 2ebc
00000060: c474 803e f75a 163e 5a4d 8fbe 0dbd 913d
00000070: 35d7 06be e34d f1be d4bf 343d 6b13 9f3e
00000080: bfa8 b13d 6bbc ec3e 9fa7 f23d bf8a bc3e
-0.33063698 0.39222485 -0.03230454 -0.13596988 -0.021204166 0.017588535 -0.13855098 -0.0025848432
0.1285076 0.17052673 0.07838388 -0.21425112 -0.32680258 -0.46154252 0.44261304 0.08671109
0.21285197 0.32996175 -0.3487361 -0.23421685 0.04947394 0.22230527 0.30446586 -0.010648869
0.25089085 0.14683138 -0.27988702 0.07116137 -0.13168032 -0.47129735 0.044128254 0.31069502
0.08674764 0.46237502 0.118483774 0.36824605

Conv2D_3 f4 [1, 1, 1, 32]
00000000: a1c9 ef3e bef9 88be 0b6a d43c ffb2 2ebe
00000010: 771f 873d 95d5 3f3d 75c5 063f 6da0 a63e
00000020: 37c5 40bc 149d 6dbe b6f0 c63e 97e1 6d3e
00000030: c892 293e 79d8 753e 6943 d53d 5a1f d4be
00000040: 661d a8bd c462 98be 012b dbbd 929d 643d
00000050: 2fdb d7bd c461 d8be ae36 ad3d 0167 923d
00000060: 6fc3 973e e83f 88be 1cdc 8dbd 8658 02bf
00000070: 99d5 09be 9f2a 3abd a981 a0bd 2b15 4f3e
0.46833518 -0.26753038 0.025929471 -0.17060469 0.06597798 0.046834547 0.52645046 0.3254427
-0.01176577 -0.23204452 0.38855523 0.23230587 0.16559899 0.24008359 0.10413248 -0.4143017
-0.08208732 -0.29762852 -0.10701562 0.055814333 -0.10539853 -0.4226209 0.08457695 0.07148553
0.29641291 -0.26611257 -0.06926748 -0.50916326 -0.13460387 -0.045450803 -0.07837231 0.20222919

Conv2D_4 f4 [4, 3, 3, 1]
00000000: 486d 74bc a797 903d 5b24 82bd 004c bbbd
00000010: 92b0 f13c 8832 12be aa60 593e de84 cc3d
00000020: b59d 453d ba64 533e b346 303e 6190 943e
00000030: 71bb 843e 081d a5be 4325 ccbe 7a64 cabc
00000040: 8cd4 bd3e 17b4 bdbc ac20 0cbe 3c30 063e
00000050: 7355 94be 100a c0bd 244f a2be 64b1 62bd
00000060: 6590 8bbe bf19 5ebe 8407 023e 3fba abbe
00000070: a7f0 3d3e e4ff 7c3d 43fa b13d 4f1a 183d
00000080: dd43 5abe 0108 2b3d 9b02 aebd 6687 003d
-0.014918633 0.070601754 -0.063545905 -0.09145355 0.02950314 -0.14277089 0.2122828 0.0998628
0.048246104 0.20643893 0.1721447 0.29016402 0.25924256 -0.32248712 -0.39872178 -0.024706114
0.37076223 -0.023157163 -0.13684338 0.13104337 -0.28971443 -0.09376919 -0.31701005 -0.055344954
-0.27258602 -0.21689509 0.1269818 -0.33540532 0.18548833 0.061767474 0.08690312 0.037134465
-0.2131495 0.04175568 -0.08496591 0.031379126

Conv2D_31 f4 [1, 1, 1, 32]
00000000: 78b8 a73e c8a0 d13e d7ad 0c3e 340c 513d
00000010: f240 263e 2d1d 9c3e bd0f e3bd 1dcc 3b3e
00000020: 950e b93e 7f9a 25be 46bd cabe d07e 7d3d
00000030: c783 1bbe 45fe c43e 03d7 1f3e 611e 163e
00000040: d0ab 813e cedc d33e 897a 8abd ba43 afbe
00000050: 3e91 183c 0024 1b3b 9b2a 25be eb20 92be
00000060: b2d0 6bbe bb4f 3d3e 311a b2bd bd48 133f
00000070: 14fb bdbe 2801 c8bd 94ee 273e 6798 33be
0.32757926 0.4094298 0.1373819 0.05103703 0.16235712 0.3049101 -0.11086986 0.18339582
0.36143938 -0.16172217 -0.3959753 0.061888516 -0.15186988 0.38475242 0.15609364 0.14660026
0.25326395 0.41379398 -0.06761653 -0.3423136 0.009311972 0.002367258 -0.16129534 -0.2854074
-0.2302883 0.18487446 -0.08696402 0.57532865 -0.3710562 -0.097658455 0.16399604 -0.17538606

Conv2D_32 f4 [4, 3, 3, 1]
00000000: 4fa2 f7bd 3b30 9f3d 3ee4 afbe c92c 773d
00000010: 0331 87bd 1d7e 91be e0bc 42be 6ced c6be
00000020: ed63 4dbe c609 413e 98ac dcbd 8925 6dbe
00000030: 5d92 31be ff88 f9bd c08a 13bd 564f 0c3e
00000040: 5558 54be 089b e23d 477e 4d3e 4970 8f3c
00000050: 8775 2b3c c21f 993d 8e31 e3bd b172 e1be
00000060: ccc7 9e3e e545 eb3d b587 173e ec06 d0bd
00000070: 830f 2dbc fa59 edbd 2c65 51bd 5cbe 0e3e
00000080: 362e e33d bd82 e3be 2a48 87be 7567 07bd
-0.12091505 0.07772871 -0.34353822 0.060345445 -0.06601145 -0.2841653 -0.19017363 -0.38853014
-0.2005765 0.18851385 -0.10775107 -0.2315885 -0.1734099 -0.12184333 -0.036020994 0.1370214
-0.20736821 0.11064726 0.20067702 0.017509596 0.010465032 0.074767604 -0.11093436 -0.44032815
0.31011808 0.11487941 0.14797862 -0.1015757 -0.01056278 -0.11589427 -0.051121876 0.13939804
0.110927984 -0.44435683 -0.26422244 -0.03305765

Conv2D_33 f4 [1, 1, 1, 32]
00000000: aa39 033e 90cc d6bd bebc d3be 20d7 e5bd
00000010: ae1b 313e dbb0 3d3d 328e cd3e 5bbb 9ebe
00000020: 8c1f 043f d810 6d3e 044f 9bbd 9c81 823d
00000030: e028 e2be 4a8e 193e 99a4 b5be 116d 5c3e
00000040: 3df7 333d 2e28 383e cd17 00bd 12d4 ce3d
00000050: bfe8 f73c dbbb 5c3e 25dd 8cbe 45e8 32be
00000060: b454 c4bd 5808 9c3d a80e 6dbe e46b 98be
00000070: fb13 bebe c65a 0c3d 6a36 2a3e d8be 55be
0.12814966 -0.10488236 -0.41354936 -0.112226725 0.17295715 0.04631124 0.4014755 -0.31002316
0.51610637 0.23150957 -0.075834304 0.06372377 -0.4417181 0.14995685 -0.3547714 0.2152598
0.043936957 0.17984077 -0.0312727 0.10099043 0.03026235 0.21556036 -0.2751247 -0.17471416
-0.09586468 0.07618779 -0.23150122 -0.29769814 -0.3712462 0.034266256 0.1662232 -0.20873582

Conv2D_34 f4 [4, 3, 3, 1]
00000000: 27d7 3abe 1809 863e 481b 0e3e fa83 893d
00000010: 39a5 f9bd 2f2c 7dbe 0fd1 9cbe dd08 703e
00000020: 7e1c e63d 0489 31bc 5886 df3e 509f c53d
00000030: ff39 603e dca1 a2be 27b3 27be 57b6 50be
00000040: ea53 25be 7f33 073e e0c5 243e fe52 3bbe
00000050: 3b5c 49be 9dfd 1a3e 0887 3dbe 6581 b7be
00000060: f2be cf3e 8d68 b0be f97d 51be 4398 9f3d
00000070: 6296 26be cf92 ec3d 818d cfbc 87c4 9b3e
00000080: 0fdc cd3e 1d88 613d e996 003e 8315 3c3e
-0.18246137 0.26178813 0.13877594 0.06714626 -0.12189717 -0.24723886 -0.3062825 0.23440881
0.11235903 -0.01083589 0.43657184 0.09649527 0.21897124 -0.31764114 -0.16376935 -0.20382057
-0.16145292 0.13203238 0.16091108 -0.18293378 -0.1966409 0.15135808 -0.18508542 -0.35840908
0.40575367 -0.34454766 -0.20458211 0.077927135 -0.16268304 0.11551439 -0.025336029 0.30423376
0.40206954 0.05506145 0.12557568 0.18367581

Conv2D_35 f4 [1, 1, 1, 32]
00000000: c795 1ebd 5e81 41b9 09ac 62be f714 95be
00000010: 6555 433d fa26 9e3e 9843 67be 2e2d 5a3e
00000020: 16c4 cfbe 63a5 c63e 53e5 bfbe 593b a9be
00000030: a1c5 52bb defd e73d cf8b 273c 3ccf 0fbe
00000040: 38dd 483e 32df dcbe 7fd5 7b3e b088 8bbe
00000050: 098f eb3e 8a44 07be a56c a5be 5d98 c4be
00000060: ad6f 673d f519 983d a26b e2bd 9f8b 83bd
00000070: df8c 4ebe a8ee 233e 994d b2bc 5fbf d33e
-0.038717058 -0.00018454107 -0.22135939 -0.29117557 0.04768886 0.30889112 -0.22584379 0.21306297
-0.4057929 0.38798055 -0.37479648 -0.3305309 -0.0032161253 0.11327718 0.010226204 -0.14043897
0.19615638 -0.43139035 0.24593161 -0.27252722 0.46007565 -0.1320974 -0.32309452 -0.38397494
0.056502987 0.07426826 -0.110556856 -0.06423115 -0.20170926 0.16009009 -0.021765517 0.41356942

Conv2D_36 f4 [4, 3, 3, 1]
00000000: 8623 09bd bfc9 4dbe 9bc0 c6be abf3 0e3e
00000010: eb9b 1abe 6a4d 9d3b c673 a03d 7b99 febd
00000020: 646f 283d 80e4 0c3e cf6c 683e 3034 3e3e
00000030: d8e9 cebe c2fd 43bd f47b 9cbe ab7f ca3e
00000040: e5e3 063e 168e b7bd 1c6e 1cbd 58c8 d73c
00000050: d7d5 09bf 4ab2 a1be 799f 403e cc6c 753d
00000060: 383c 933e d73c febc d406 873e e9d2 303d
00000070: 91f4 8dbe d3a8 16be c147 303e 77d2 8b3e
00000080: 2355 40be 5c9a 93be 7cc5 313e 369e ddbe
-0.033481143 -0.20096491 -0.3881882 0.1396014 -0.1509854 0.0048004882 0.07834582 -0.12431618
0.041121855 0.13759041 0.22697757 0.18574595 -0.40412784 -0.047849424 -0.3056332 0.39550528
0.13172872 -0.089626476 -0.038190946 0.026340649 -0.5384192 -0.31581336 0.18810834 0.05991821
0.2875688 -0.03103487 0.26372397 0.04316989 -0.27725652 -0.14712839 0.17214872 0.2730901
-0.18782477 -0.28828704 0.1736049 -0.43284768

Conv2D_37 f4 [2, 1, 1, 4]
00000000: 57db 1c3f 19a3 743f dc24 6a3f 2c2c efbd
00000010: 7dd6 343f 9849 c9bb 8372 7ebd e6e4 afbe
0.61272186 0.9556137 0.9146249 -0.11678347 0.70639783 -0.0061428063 -0.062120926 -0.34354323

Conv2D_38 f4 [4, 1, 1, 2]
00000000: b3f3 33bf 773c 04be fbd6 93bd e273 223e
00000010: 0363 5fbe 016b 5fbe bb07 273f ace4 0e3d
-0.7029373 -0.1291369 -0.07218739 0.15864518 -0.21815114 -0.21818163 0.6524617 0.034886047

Conv2D_39 f4 [4, 1, 1, 2]
00000000: e15c 92bf 6aab ff3c cb74 81bf 7b36 8ebe
00000010: 5000 603e 6a60 b63e c69b 4dbe 9b6e d43e
-1.1434594 0.031209666 -1.0113767 -0.2777594 0.21875119 0.35620433 -0.20078954 0.41490635

Conv2D_40 f4 [4, 1, 1, 2]
00000000: 0b6a 993e ca29 103f 0fb5 2f3f 5a36 13be
00000010: d768 a3be 3852 81bf 0f61 373f 1a3b c33e
0.29963717 0.56313765 0.6863565 -0.14376202 -0.31915924 -1.0103216 0.71632475 0.38131028

Conv2D_41 f4 [4, 1, 1, 2]
00000000: b7e4 d13e 2bf0 88be 141d 2abe 57cb 9a3e
00000010: aa87 d43e e3cb db3e 7776 b83d 08fb babe
0.40994808 -0.26745734 -0.16612655 0.3023326 0.41509753 0.4292899 0.090069704 -0.36519647

Conv2D_42 f4 [1, 1, 1, 32]
00000000: 26c8 ecbd 0968 753e 68c0 4dbe ab09 703d
00000010: 3469 833e 1b1f 6fbe 25aa 63bc 32f7 bebe
00000020: dadb a93d 9694 8ebe 8c8a 173e 63b7 343d
00000030: ef8c 4ebd ad8a fc3c 6ee4 67be 3697 063e
00000040: 06d1 10bd e918 60bd 1c6b 273d bafc 49be
00000050: 4d3e 933e c2c1 cc3e 6d9d e33e 4c2d 413e
00000060: e7b6 ae3e 7d0c 7abd f785 8f3c 23dd 803e
00000070: 6e61 7fbe dfc3 94be 1f11 6f3d eefb 863e
-0.11561613 0.23965468 -0.20092928 0.05860297 0.256662 -0.2335171 -0.013895546 -0.3729797
0.082938865 -0.27847737 0.14798945 0.044120204 -0.050427373 0.030827845 -0.22645733 0.1314362
-0.03535559 -0.054711256 0.04087363 -0.19725314 0.2875847 0.39991575 0.44456044 0.18864936
0.34123918 -0.061047066 0.017519934 0.25168714 -0.2493951 -0.29055688 0.058365937 0.26364082

Conv2D_43 f4 [4, 3, 3, 1]
00000000: 6459 4e3d 6e99 683e cdfb b23d 116d 773e
00000010: aadb c03e 1f72 dc3e d3d3 2bbe 9c6d 9dbe
00000020: fb17 f53d d8e4 9bbe ad9f 643e f030 b9bd
00000030: cbb3 10be cb2a b1bd ff00 ab3d eaaf 83bd
00000040: cfc4 82be 0cec 92bd 4ebd 83be d75d 733c
00000050: 5237 0ebe d722 0d3e 1e86 24be 5fba 5a3e
00000060: dfd4 25be 450a 1c3e 9d01 22be 1dca 67bd
00000070: 420b 1d3e 858c cdbe b5ed 10be 40c3 583e
00000080: 594f e33d 2358 8abd b0c8 e8be c46f dcbd
0.05037822 0.22714779 0.087394334 0.241627 0.3766759 0.43055817 -0.16780023 -0.30747688
0.119674645 -0.3044803 0.22326536 -0.09042537 -0.14131086 -0.0865074 0.08349799 -0.06430037
-0.25540778 -0.071739286 -0.25730366 0.014853916 -0.1388829 0.13782822 -0.16066787 0.21360157
-0.16194485 0.15238293 -0.15820928 -0.056589235 0.15336326 -0.4014627 -0.14153178 0.21168232
0.11099119 -0.06755092 -0.45465612 -0.10763505

Conv2D_44 f4 [1, 1, 1, 32]
00000000: 2b77 053e bda3 9c3e b215 debd b23b 70be
00000010: 4692 24be d96e 213e 44c4 d63d e552 94bd
00000020: 255a 81be c082 0cbd b6d9 b3be 0dae bfbb
00000030: eb4b 17bd 08ee f5bd b2bd 80bd e3ed 193c
00000040: 98d4 d53e 0f91 c13e fd52 81bd f94c 893e
00000050: 6aa1 893e d177 df3d e985 503e 64d6 6a3e
00000060: 3a3f cbbb 48bc af3e fd5b 063e 867e 3abd
00000070: d0d6 08bd 9855 6d3e 97de 44be db00 0bbf
0.1303374 0.30593672 -0.10843982 -0.23460272 -0.16071424 0.15764941 0.104866534 -0.072423734
-0.25264087 -0.03430438 -0.35127038 -0.005849606 -0.036937635 -0.120082915 -0.062861815 0.0093950955
0.4176376 0.37805983 -0.06314657 0.26816538 0.26880962 0.10911525 0.20363583 0.22933346
-0.0062026056 0.34323335 0.13121028 -0.04553082 -0.033407986 0.23177183 -0.19225536 -0.5429818

Conv2D_45 f4 [4, 3, 3, 1]
00000000: 4c79 49be fe88 103e 43de e0be 20ba 9abe
00000010: 324d a23d e175 943e 1873 84be 5f04 c23e
00000020: 3ed5 c83d aa72 4a3e 498c 91be ab30 e13d
00000030: c5fe bcbd 05e3 dabe 51ae 5dbe 80f6 c5bd
00000040: d660 5ebb 20df 1c3e d909 71bc c5d1 613d
00000050: e9ee 32be 3ca4 8bbe 6c25 07be f6c0 5c3e
00000060: 81c4 eb3d c0fe 5abe 0393 bbbe f0f2 cf3e
00000070: 4124 13be caf2 b73d 9aa9 963d 62b9 c83e
00000080: 0ef5 6dbe 9f0d 87be e8dd 883b 38fd 3dbe
-0.19675177 0.14114758 -0.43919572 -0.30220127 0.0792488 0.28996184 -0.2586906 0.3789396
0.09806298 0.19770303 -0.28427342 0.10995611 -0.09228281 -0.42751327 -0.21648528 -0.09666157
-0.003393223 0.1531949 -0.0147118205 0.055131692 -0.1747395 -0.27273738 -0.13197869 0.21557984
0.115120895 -0.21386242 -0.366356 0.40615034 -0.14369299 0.08981855 0.07356568 0.39203936
-0.23238012 -0.2637758 0.004176844 -0.18553627

Conv2D_46 f4 [1, 1, 1, 32]
00000000: 68ac 61be dba7 64bd 6fc0 893e e4b4 b3be
00000010: 2d64 60bb 1a03 02bd c672 853e a192 973e
00000020: 24f2 83bd 6257 ba3e 4951 a1bd cc16 e33d
00000030: 680e 02be 4bda 60be 51b1 5d3e 5b4b 603d
00000040: 4ebe 963e 8361 b23e a6b3 0cbd 797d abbe
00000050: 3dc7 adbe 42d9 d0bd 70b7 f3be 368a a73e
00000060: 9f45 9f3e 5723 77be a7d3 c1be b98b 1dbe
00000070: e4ae edbe ec46 903e 171e 993d bd30 79be
-0.22038424 -0.055824142 0.26904628 -0.35098946 -0.0034239397 -0.03174124 0.26064128 0.29604056
-0.06442669 0.36394793 -0.07876832 0.110883325 -0.12700808 -0.21958272 0.21649672 0.054759365
0.29442066 0.3484002 -0.034351014 -0.33494166 -0.3394107 -0.10197689 -0.4760089 0.32722634
0.31107804 -0.24134575 -0.3785679 -0.15385331 -0.46422493 0.2817911 0.07476442 -0.24334998

Conv2D_47 f4 [4, 3, 3, 1]
00000000: f58a 9abe b929 0bbe 728b 193e 213e b33d
00000010: b9af 273e 3ec1 293e 8b79 9cbe 0002 1c3e
00000020: 064b a2bd d967 30bd a720 a2bd d0f2 c53e
00000030: eff1 92be edd8 993e f3bd 8fbb 3406 04bd
00000040: 4879 c83e 97aa ce3d 0ec9 31be 05fe 213e
00000050: 571b fdbd f0f9 b4bd c494 383e 546a fc3b
00000060: 6d40 abbe 2103 4cbe b11c d83c d606 323e
00000070: afc1 693e cfe8 273e ccdd 15bd 9e67 063e
00000080: ac16 963e 2a19 d3be b9ee 4f3e d8b9 f0be
-0.3018414 -0.13590135 0.149946 0.087520845 0.16375627 0.16577622 -0.3056148 0.15235138
-0.07924466 -0.043067787 -0.07916384 0.38661814 -0.28700206 0.30048314 -0.0043866574 -0.03223248
0.3915503 0.10091131 -0.17361853 0.15819557 -0.1235873 -0.08836734 0.180255 0.007703105
-0.3344759 -0.19923069 0.026380869 0.1738542 0.2282779 0.16397403 -0.036588475 0.13125464
0.29314172 -0.41230136 0.20305909 -0.47016788

Conv2D_48 f4 [1, 1, 1, 32]
00000000: 6cc2 84be bcb3 5cbe bcb3 0dbd 7db9 8a3e
00000010: f0bb 723c 3ff2 91b9 8984 5c3c 2686 a23d
00000020: bb38 273e 491a 8fbe ba00 7b3b e17e 233e
00000030: d497 d43d 2d46 a7bc 0f13 d63d 0b08 a4be
00000040: eef4 843e 5ca2 943e e518 b23e 143b af3e
00000050: b089 7ebe fc33 42be b1f5 df3d 8f8f e2bd
00000060: db81 a1be a9b6 e83d c295 00bc 467a ae3d
00000070: 7c0e c53e 5dff e33e a579 313d 9d31 223c
-0.25929582 -0.21552938 -0.034595236 0.2709464 0.014815316 -0.00027837043 0.013459333 0.07935743
0.16330235 -0.2794974 0.0038299994 0.15966369 0.103805214 -0.020419205 0.10452854 -0.32037386
0.25968117 0.2903012 0.34784618 0.3422476 -0.24857211 -0.18965143 0.10935534 -0.11062538
-0.31544384 0.11362965 -0.007848205 0.085194156 0.38487613 0.44530764 0.0433289 0.009899524

Conv2D_49 f4 [4, 3, 3, 1]
00000000: 3e83 38bd 932f ab3d fecf c63e a72d 833e
00000010: 3eb2 d5bc 67b1 92be 0878 703c eb38 87be
00000020: 8150 21bd abfd 68be 2949 10be db9c 343e
00000030: 2e00 96be 861a 75be 834a 363e 50cb b7bd
00000040: 18bf 75be 1518 77bd 5453 cbbe 11a7 34bd
00000050: e41f 473e 50e9 4bbe 8a95 9e3e 4627 873d
00000060: 7da7 39be 645f b6bd 923d bc3e 840e 9d3e
00000070: d7a5 7b3e fc2d 86be b7ee 763e 7983 e13d
00000080: 3248 f3bd 72f3 7a3d 8406 713e f380 983e
-0.045047037 0.083586834 0.3883056 0.25620767 -0.026085969 -0.28650972 0.014677055 -0.26410612
-0.039383415 -0.22753017 -0.14090408 0.1763796 -0.29297012 -0.23935899 0.17801861 -0.08974326
-0.23998678 -0.0603257 -0.39712012 -0.04410464 0.19445759 -0.1991322 0.30973464 0.06599288
-0.18130298 -0.08904913 0.36765724 0.30675137 0.24574982 -0.26206958 0.241145 0.110114045
-0.118790045 0.061267324 0.23537642 0.2978588

Conv2D_50 f4 [2, 1, 1, 4]
00000000: 3fec c0bd 71db a83e 99f2 b2be 841d b83e
00000010: 4e75 03be 0e42 0dbe 0faa 6d3f fd9c 633e
-0.0942006 0.3297992 -0.34950712 0.3596002 -0.12837717 -0.13794729 0.92837614 0.22227855

Conv2D_51 f4 [4, 1, 1, 2]
00000000: 1479 6c3f ee3a 2c3f 0631 563b 147d 80bf
00000010: b539 c9bc c304 61bf 0c51 12be b6c7 8b3e
0.9237225 0.6727742 0.003268303 -1.0038171 -0.02456365 -0.8789789 -0.1428873 0.27300805

Conv2D_52 f4 [4, 1, 1, 2]
00000000: 2be7 d4be 2528 8bbf 9bee bb3e 60bb 81be
00000010: 68b1 953e 0952 a93d bc3f b63e be99 dfbe
-0.41582617 -1.0871626 0.3670548 -0.25338268 0.29236913 0.082676 0.355955 -0.43671983

Conv2D_53 f4 [4, 1, 1, 2]
00000000: 9ba5 c23d 6ca7 cabe fd03 233f 6e75 1bbf
00000010: 963d a1bc 349e 6d3e ab2e 9f3c 4535 c7bd
0.09504243 -0.39580858 0.6367796 -0.6072606 -0.019682687 0.23204881 0.019431433 -0.09726957

Conv2D_54 f4 [4, 1, 1, 2]
00000000: 41f1 b43e f986 b0be 08b1 923f be5a 243e
00000010: c353 f53d ac02 70be d1ba cf3e f9fa 8c3c
0.35340312 -0.34477976 1.1460276 0.1605024 0.11978867 -0.23438519 0.40572217 0.017209517

Conv2D_5 f4 [1, 1, 1, 32]
00000000: 5597 40bd 3c49 da3e 66c5 dc3e fab7 3c3e
00000010: 4daa 95be f359 e93d 7267 0b3e 1d44 c43e
00000020: 126e 7fbe 7e8b c9bd 0dcd f3be f78e b5bd
00000030: 3711 983d b9b0 c03d 0fb2 983e e260 233e
00000040: 71e2 82be 77f4 73bd 20bc f4bd c960 eebe
00000050: 5de1 1cbe e7aa b9bd 513b 82bd fc9d 8fbd
00000060: e429 263c 05a4 903e 2636 0e3d 6e11 63be
00000070: 6d46 07bf a656 4a3e 7909 bd3e c419 693e
-0.04701932 0.42633998 0.43119353 0.18429556 -0.29231492 0.113941096 0.1361368 0.38333216
-0.24944332 -0.09841059 -0.4761738 -0.08865159 0.074251585 0.09408707 0.29823348 0.15954927
-0.25563386 -0.05955931 -0.119499445 -0.46558216 -0.15320344 -0.090658 -0.0635897 -0.07012555
0.010141823 0.28250137 0.03471961 -0.22174618 -0.52841836 0.19759616 0.3692129 0.22763735

Conv2D_6 f4 [4, 3, 3, 1]
00000000: 225f 863e 6037 81be 137d 373e 5199 2abe
00000010: f647 5b3e 33e5 02be 4356 41be 7d38 373d
00000020: 6078 1fbe 0ea6 03be cc87 94be 7f50 61be
00000030: 2f90 a2be 176f 7cbd 693f b73c d855 c13d
00000040: 7c73 2f3e 7a60 923d 5e24 f03e 52b1 a7be
00000050: e06e f63d 93b6 cabe 6187 e7bd 8bcd 983d
00000060: 8132 27be 868f ad3d f574 10be b472 26bd
00000070: 3632 20bd 3fd2 5a3e 65d6 143e 8464 9dbc
00000080: f654 e0bd 90ae 3f3e 080f 65bd e31b c03e
0.26244456 -0.2523756 0.17918806 -0.16660048 0.2141417 -0.12782745 -0.18880562 0.044731606
-0.15573263 -0.12856314 -0.29009855 -0.22003363 -0.31750628 -0.06162938 0.022369104 0.094402015
0.17133898 0.07147308 0.46902746 -0.32752472 0.120328665 -0.39592418 -0.11305118 0.07461079
-0.1632786 0.084746405 -0.14107116 -0.040636733 -0.039110385 0.21369265 0.1453491 -0.019212969
-0.10953705 0.18718934 -0.055922538 0.37521276

Conv2D_7 f4 [1, 1, 1, 32]
00000000: d0b1 883d 0ed4 a93d 0639 fc3e 7b2a 713d
00000010: a58d 3ebe 9215 1a3e 5691 41be 18ec 1f3e
00000020: 323a 403d 0bec 53be 9481 6bbd 9bb9 843d
00000030: caa6 acbd 6445 e4bd 6ed7 14be 78f7 f9be
00000040: 9b99 6dbe 6e2f d7bd 157c 713c f3e7 c0be
00000050: 99eb 063f c31a 57be 8a67 42bd f9d4 4ebe
00000060: 0290 b6be 263c 94be f68f d03e 7465 a4be
00000070: 0946 ac3e 9d14 c4be b000 d53e a990 c73e
0.0667454 0.08292399 0.49262255 0.058878403 -0.1860872 0.15047291 -0.18903098 0.15617406
0.0469305 -0.20695512 -0.057496622 0.06480714 -0.0843025 -0.11146048 -0.14535305 -0.48821616
-0.23203127 -0.10507093 0.014739056 -0.37676963 0.52703243 -0.21006303 -0.047462024 -0.2019843
-0.35656744 -0.2895214 0.40734833 -0.32108653 0.33647183 -0.38296977 0.41602087 0.38977554

Conv2D_8 f4 [4, 3, 3, 1]
00000000: 1221 123c ce42 d43e 86da bcbe 9922 9b3e
00000010: 88e1 efbd 3330 483c 4ca6 debd ec40 62be
00000020: a49b 673e cd0a 5abe 3b57 6bbe 0a54 413d
00000030: bb1b e33e ab81 953d 8c6a 69be b08e ab3e
00000040: b8f2 ab3e 033f 4abe 303f a83d 35ca f7bd
00000050: e0c7 3ebe 761d dbbd 0b35 283c 1dbf 91bd
00000060: 3035 8c3e 2501 893d 20aa fc3d 71bd a73e
00000070: 3d92 873c feaf 56be 1904 56bc 281e 42be
00000080: b79e 803d 6c27 10be 9396 4fbe eb9a 3a3e
0.008919017 0.41457218 -0.3688547 0.30299833 -0.117129385 0.012218523 -0.10871562 -0.22095078
0.22617966 -0.21293183 -0.22982495 0.047199287 0.44357094 0.07300123 -0.2279455 0.335073
0.33583617 -0.197506 0.08215177 -0.12099115 -0.18630934 -0.106989786 0.010266553 -0.0711653
0.2738433 0.066896714 0.12337136 0.3276172 0.016549224 -0.20965573 -0.0130625 -0.18956816
0.062802725 -0.14077538 -0.20272283 0.18223159

Conv2D_9 f4 [1, 1, 1, 32]
00000000: b0bf 7a3e 8662 2abe 5484 02bf f1f9 9cbe
00000010: 0daf 843e 6f7e eebe 671d 45be 3f26 05be
00000020: b2fb 4b3d 901b 3fbe 5685 323d c3e7 923d
00000030: 23e3 00be 41b4 66be 3882 3fbd eede 31be
00000040: 718e 4f3e 9111 b4bb dda8 833e 4fc0 b43c
00000050: 73f0 01bf 6514 1abe 0425 513e 8756 0b3e
00000060: 3fbb 22be c49c 533e 027b 4dbe 781c 49be
00000070: e9e7 5dbe 1f31 c7be 9300 9a3e c4a1 1ebe
0.24487185 -0.16639146 -0.50983167 -0.3065944 0.25914803 -0.46580836 -0.19249497 -0.13002871
0.049800582 -0.18662858 0.04358419 0.07173111 -0.12586646 -0.22529699 -0.046755046 -0.17370197
0.20269181 -0.005495258 0.2571477 0.022064356 -0.5075752 -0.15046842 0.20424277 0.13607226
-0.15891741 0.2066527 -0.20066455 -0.19639766 -0.21670498 -0.38904664 0.30078563 -0.15491396

Conv2D_10 f4 [4, 3, 3, 1]
00000000: 9b4a 0cbe fd59 343d 7a25 95be 2261 0abe
00000010: 7ee3 f8bc e56b afbd 2c50 1f3d d5ca 9b3c
00000020: d748 aabc 9c18 363d 3e6b 373e 6dd6 983e
00000030: e056 c13e 3ac9 cb3d e261 ca3b ca66 6e3c
00000040: d97e 6d3e 6bd4 ed3d d371 0abd 4d62 3fbe
00000050: cfd6 a7bd 0c0e ab3d c46f 02be 1648 2ebe
00000060: 2dcd d33d 5b0a c43e 9569 8d3d 9c25 b1bd
00000070: eedd cabc 2499 6c3d af88 453d 7bf8 61be
00000080: ef74 d23e da13 53be ad75 30be d060 f03d
-0.13700335 0.044031132 -0.29130155 -0.13513616 -0.030381914 -0.08565501 0.038894817 0.019017616
-0.020786686 0.044457063 0.17912003 0.29851094 0.37761593 0.0995049 0.0061762193 0.014550874
0.2319292 0.11612781 -0.033799957 -0.18689843 -0.08195268 0.083522886 -0.12737948 -0.17019686
0.103418685 0.3828915 0.06904904 -0.086497515 -0.024764027 0.057763234 0.048226055 -0.22067444
0.41104838 -0.20613042 -0.1723239 0.117372155

Conv2D_11 f4 [2, 1, 1, 4]
00000000: bd6b aa3e 8c52 99bf cfe5 f43d 7136 483f
00000010: e673 503f 623b 5f3e 2e92 18bf 09a4 fa3e
0.33285323 -1.1978316 0.11957895 0.7820807 0.81426847 0.21799996 -0.5959805 0.48953274

Conv2D_12 f4 [4, 1, 1, 2]
00000000: 7d8b b13d 2135 05be 36eb 8cbf 11d5 e5be
00000010: e474 003f 4b9b 3abf d686 eb3e 3c83 86bc
0.086691834 -0.13008548 -1.1009281 -0.4488912 0.5017836 -0.7289321 0.4600131 -0.01642

Conv2D_13 f4 [4, 1, 1, 2]
00000000: a6d6 c6be 1032 cc3e cb7f 5f3f 81ea 803e
00000010: 19d5 84be a485 63bd 07bd 0ebf 735b 0e3f
-0.3883564 0.39881945 0.8730437 0.25178912 -0.2594383 -0.05554737 -0.5575718 0.5560829

Conv2D_14 f4 [4, 1, 1, 2]
00000000: 7754 01bf c834 a93f 9ff2 953f 6839 87be
00000010: 2871 a5be 6e62 debe 0774 83be 32b0 a13d
-0.5051951 1.3219233 1.1714667 -0.26410985 -0.32312894 -0.4343447 -0.2567446 0.07894935

Conv2D_15 f4 [4, 1, 1, 2]
00000000: 686d 8f3f 11d9 8b3e 12f5 443f 31ea 96be
00000010: dc21 0d3f b83a 853e d637 3ebf 3cc1 47bf
1.1205263 0.27314046 0.7693645 -0.2947555 0.5512979 0.2602136 -0.7430395 -0.7802923
